…
start_from_mode = last
train_caption_file = data/captiondata/expand_trainset/train_modified.json
train_proposal_file = data/generated_proposals/dbg_trainval_top100.json
train_proposal_sample_num = 24
train_proposal_type = learnt_seq
use_posit_branch = 1
val_caption_file = data/captiondata/expand_trainset/val_1.json
visual_feature_folder = data/c3d
visual_feature_type = c3d
vocab_size = 5747
weight_decay = 0
wordRNN_input_feats_type = C


******************** Model structure: ******************************************
EncoderDecoder(
  (event_encoder): TSRM_Encoder(
    (pre_map): Sequential(
      (0): Linear(in_features=500, out_features=512, bias=True)
      (1): ReLU()
      (2): Dropout(p=0.5, inplace=False)
    )
    (key_map): Linear(in_features=512, out_features=512, bias=True)
    (query_map): Linear(in_features=512, out_features=512, bias=True)
    (value_map): Linear(in_features=512, out_features=512, bias=True)
    (drop): Dropout(p=0.5, inplace=False)
    (pair_pos_fc1): Linear(in_features=512, out_features=512, bias=True)
    (pair_pos_fc2): Linear(in_features=512, out_features=16, bias=True)
  )
  (caption_decoder): ShowAttendTellModel(
    (embed): Embedding(5748, 512)
    (sent_rnn): LSTM(1024, 512, bias=False, dropout=0.5)
    (gate_layer): Sequential(
      (0): Linear(in_features=1536, out_features=512, bias=True)
      (1): Sigmoid()
    )
    (global_proj): Sequential(
      (0): Linear(in_features=512, out_features=512, bias=True)
      (1): Tanh()
    )
    (local_proj): Sequential(
      (0): Linear(in_features=1124, out_features=512, bias=True)
      (1): Tanh()
    )
    (para_transfer_layer): Linear(in_features=512, out_features=512, bias=True)
    (gate_drop): Dropout(p=0.5, inplace=False)
    (logit): Linear(in_features=512, out_features=5748, bias=True)
    (dropout): Dropout(p=0.5, inplace=False)
    (core): ShowAttendTellCore(
      (rnn): LSTM(1012, 512, bias=False, dropout=0.5)
      (ctx2att): Linear(in_features=500, out_features=512, bias=True)
      (h2att): Linear(in_features=512, out_features=512, bias=True)
      (alpha_net): Linear(in_features=512, out_features=1, bias=True)
    )
  )
)


******************** Strat training ! ******************************************
ID tsrm_cmg_hrnn_RL_enlarged_trainset_spatika_v_2022-04-05-22-25-39 iter 3562 (epoch 1, lr 3e-05), avg_iter_loss = [-0.027  0.142  0.153], time/iter = 0.701, bad_vid = 0.000
